B0.npz (npz, 18942 bytes, 2 tensors)

array1 f8 [3, 384]
000000 00 00 00 00 00 60 65 40 1f 85 eb 51 b8 3e 65 40
       171.0 169.96
000010 ec 51 b8 1e 85 db 64 40 8f c2 f5 28 5c 37 64 40
       166.86 161.73
000020 cd cc cc cc cc 54 63 40 f6 28 5c 8f c2 35 62 40
       154.65 145.68
000030 ae 47 e1 7a 14 de 60 40 14 ae 47 e1 7a a4 5e 40
       134.94 122.57
000040 3d 0a d7 a3 70 2d 5b 40 52 b8 1e 85 eb 61 57 40
       108.71 93.53
000050 3d 0a d7 a3 70 4d 53 40 7b 14 ae 47 e1 fa 4d 40
       77.21 59.96
000060 3d 0a d7 a3 70 fd 44 40 3d 0a d7 a3 70 7d 37 40
       41.98 23.49
000070 d7 a3 70 3d 0a d7 12 40 3d 0a d7 a3 70 3d 2c c0
       4.71 -14.12
000080 a4 70 3d 0a d7 63 40 c0 66 66 66 66 66 86 49 c0
       -32.78 -51.05
000090 5c 8f c2 f5 28 2c 51 c0 00 00 00 00 00 60 55 c0
       -68.69 -85.5
0000a0 e1 7a 14 ae 47 51 59 c0 14 ae 47 e1 7a f4 5c c0
       -101.27 -115.82
0000b0 66 66 66 66 66 1e 60 c0 71 3d 0a d7 a3 90 61 c0
       -128.95 -140.52
0000c0 14 ae 47 e1 7a cc 62 c0 f6 28 5c 8f c2 cd 63 c0
       -150.39 -158.43
0000d0 9a 99 99 99 99 91 64 c0 3d 0a d7 a3 70 15 65 c0
       -164.55 -168.67
0000e0 48 e1 7a 14 ae 57 65 c0 48 e1 7a 14 ae 57 65 c0
       -170.74 -170.74
0000f0 3d 0a d7 a3 70 15 65 c0 9a 99 99 99 99 91 64 c0
       -168.67 -164.55
000100 f6 28 5c 8f c2 cd 63 c0 14 ae 47 e1 7a cc 62 c0
       -158.43 -150.39
000110 71 3d 0a d7 a3 90 61 c0 66 66 66 66 66 1e 60 c0
       -140.52 -128.95
000120 14 ae 47 e1 7a f4 5c c0 e1 7a 14 ae 47 51 59 c0
       -115.82 -101.27
000130 00 00 00 00 00 60 55 c0 5c 8f c2 f5 28 2c 51 c0
       -85.5 -68.69
000140 66 66 66 66 66 86 49 c0 a4 70 3d 0a d7 63 40 c0
       -51.05 -32.78
000150 3d 0a d7 a3 70 3d 2c c0 d7 a3 70 3d 0a d7 12 40
       -14.12 4.71
000160 3d 0a d7 a3 70 7d 37 40 3d 0a d7 a3 70 fd 44 40
       23.49 41.98
000170 7b 14 ae 47 e1 fa 4d 40 3d 0a d7 a3 70 4d 53 40
       59.96 77.21
000180 52 b8 1e 85 eb 61 57 40 3d 0a d7 a3 70 2d 5b 40
       93.53 108.71
000190 14 ae 47 e1 7a a4 5e 40 ae 47 e1 7a 14 de 60 40
       122.57 134.94
0001a0 f6 28 5c 8f c2 35 62 40 cd cc cc cc cc 54 63 40
       145.68 154.65
0001b0 8f c2 f5 28 5c 37 64 40 ec 51 b8 1e 85 db 64 40
       161.73 166.86
0001c0 1f 85 eb 51 b8 3e 65 40 00 00 00 00 00 00 68 40
       169.96 192.0
0001d0 c3 f5 28 5c 8f e2 67 40 52 b8 1e 85 eb 89 67 40
       191.08 188.31
0001e0 8f c2 f5 28 5c f7 66 40 5c 8f c2 f5 28 2c 66 40
       183.73 177.38
0001f0 c3 f5 28 5c 8f 2a 65 40 14 ae 47 e1 7a f4 63 40
       169.33 159.64
000200 3d 0a d7 a3 70 8d 62 40 b8 1e 85 eb 51 f8 60 40
       148.42 135.76
000210 33 33 33 33 33 73 5e 40 7b 14 ae 47 e1 aa 5a 40
       121.8 106.67
000220 71 3d 0a d7 a3 a0 56 40 1f 85 eb 51 b8 5e 52 40
       90.51 73.48
000230 3d 0a d7 a3 70 dd 4b 40 7b 14 ae 47 e1 ba 42 40
       55.73 37.46
000240 52 b8 1e 85 eb d1 32 40 00 00 00 00 00 00 00 00
       18.82 0.0
000250 52 b8 1e 85 eb d1 32 c0 7b 14 ae 47 e1 ba 42 c0
       -18.82 -37.46
000260 3d 0a d7 a3 70 dd 4b c0 1f 85 eb 51 b8 5e 52 c0
       -55.73 -73.48
000270 71 3d 0a d7 a3 a0 56 c0 7b 14 ae 47 e1 aa 5a c0
       -90.51 -106.67
000280 33 33 33 33 33 73 5e c0 b8 1e 85 eb 51 f8 60 c0
       -121.8 -135.76
000290 3d 0a d7 a3 70 8d 62 c0 14 ae 47 e1 7a f4 63 c0
       -148.42 -159.64
0002a0 c3 f5 28 5c 8f 2a 65 c0 5c 8f c2 f5 28 2c 66 c0
       -169.33 -177.38
0002b0 8f c2 f5 28 5c f7 66 c0 52 b8 1e 85 eb 89 67 c0
       -183.73 -188.31
0002c0 c3 f5 28 5c 8f e2 67 c0 00 00 00 00 00 00 68 c0
       -191.08 -192.0
0002d0 c3 f5 28 5c 8f e2 67 c0 52 b8 1e 85 eb 89 67 c0
       -191.08 -188.31
0002e0 8f c2 f5 28 5c f7 66 c0 5c 8f c2 f5 28 2c 66 c0
       -183.73 -177.38
0002f0 c3 f5 28 5c 8f 2a 65 c0 14 ae 47 e1 7a f4 63 c0
       -169.33 -159.64
000300 3d 0a d7 a3 70 8d 62 c0 b8 1e 85 eb 51 f8 60 c0
       -148.42 -135.76
000310 33 33 33 33 33 73 5e c0 7b 14 ae 47 e1 aa 5a c0
       -121.8 -106.67
000320 71 3d 0a d7 a3 a0 56 c0 1f 85 eb 51 b8 5e 52 c0
       -90.51 -73.48
000330 3d 0a d7 a3 70 dd 4b c0 7b 14 ae 47 e1 ba 42 c0
       -55.73 -37.46
000340 52 b8 1e 85 eb d1 32 c0 00 00 00 00 00 00 00 80
       -18.82 -0.0
000350 52 b8 1e 85 eb d1 32 40 7b 14 ae 47 e1 ba 42 40
       18.82 37.46
000360 3d 0a d7 a3 70 dd 4b 40 1f 85 eb 51 b8 5e 52 40
       55.73 73.48
000370 71 3d 0a d7 a3 a0 56 40 7b 14 ae 47 e1 aa 5a 40
       90.51 106.67
000380 33 33 33 33 33 73 5e 40 b8 1e 85 eb 51 f8 60 40
       121.8 135.76
000390 3d 0a d7 a3 70 8d 62 40 14 ae 47 e1 7a f4 63 40
       148.42 159.64
0003a0 c3 f5 28 5c 8f 2a 65 40 5c 8f c2 f5 28 2c 66 40
       169.33 177.38
0003b0 8f c2 f5 28 5c f7 66 40 52 b8 1e 85 eb 89 67 40
       183.73 188.31
0003c0 c3 f5 28 5c 8f e2 67 40 00 00 00 00 00 a0 6a 40
       191.08 213.0
0003d0 3d 0a d7 a3 70 85 6a 40 3d 0a d7 a3 70 35 6a 40
       212.17 209.67
0003e0 e1 7a 14 ae 47 b1 69 40 e1 7a 14 ae 47 f9 68 40
       205.54 199.79
0003f0 48 e1 7a 14 ae 0f 68 40 3d 0a d7 a3 70 f5 66 40
       192.49 183.67
000400 3d 0a d7 a3 70 ad 65 40 52 b8 1e 85 eb 39 64 40
       173.42 161.81
000410 ae 47 e1 7a 14 9e 62 40 cd cc cc cc cc dc 60 40
       148.94 134.9
000420 33 33 33 33 33 f3 5d 40 e1 7a 14 ae 47 f1 59 40
       119.8 103.77
000430 7b 14 ae 47 e1 ba 55 40 9a 99 99 99 99 59 51 40
       86.92 69.4
000440 0a d7 a3 70 3d aa 49 40 ae 47 e1 7a 14 6e 40 40
       51.33 32.86
000450 c3 f5 28 5c 8f 42 2c 40 d7 a3 70 3d 0a d7 12 c0
       14.13 -4.71
000460 c3 f5 28 5c 8f 82 37 c0 71 3d 0a d7 a3 10 45 c0
       -23.51 -42.13
000470 f6 28 5c 8f c2 35 4e c0 8f c2 f5 28 5c 8f 53 c0
       -60.42 -78.24
000480 5c 8f c2 f5 28 dc 57 c0 29 5c 8f c2 f5 f8 5b c0
       -95.44 -111.89
000490 ae 47 e1 7a 14 de 5f c0 52 b8 1e 85 eb c1 61 c0
       -127.47 -142.06
0004a0 29 5c 8f c2 f5 70 63 c0 29 5c 8f c2 f5 f8 64 c0
       -155.53 -167.78
0004b0 d7 a3 70 3d 0a 57 66 c0 b8 1e 85 eb 51 88 67 c0
       -178.72 -188.26
0004c0 c3 f5 28 5c 8f 8a 68 c0 ec 51 b8 1e 85 5b 69 c0
       -196.33 -202.86
0004d0 52 b8 1e 85 eb f9 69 c0 5c 8f c2 f5 28 64 6a c0
       -207.81 -211.13
0004e0 e1 7a 14 ae 47 99 6a c0 e1 7a 14 ae 47 99 6a c0
       -212.79 -212.79
0004f0 5c 8f c2 f5 28 64 6a c0 52 b8 1e 85 eb f9 69 c0
       -211.13 -207.81
000500 ec 51 b8 1e 85 5b 69 c0 c3 f5 28 5c 8f 8a 68 c0
       -202.86 -196.33
000510 b8 1e 85 eb 51 88 67 c0 d7 a3 70 3d 0a 57 66 c0
       -188.26 -178.72
000520 29 5c 8f c2 f5 f8 64 c0 29 5c 8f c2 f5 70 63 c0
       -167.78 -155.53
000530 52 b8 1e 85 eb c1 61 c0 ae 47 e1 7a 14 de 5f c0
       -142.06 -127.47
000540 29 5c 8f c2 f5 f8 5b c0 5c 8f c2 f5 28 dc 57 c0
       -111.89 -95.44
000550 8f c2 f5 28 5c 8f 53 c0 f6 28 5c 8f c2 35 4e c0
       -78.24 -60.42
000560 71 3d 0a d7 a3 10 45 c0 c3 f5 28 5c 8f 82 37 c0
       -42.13 -23.51
000570 d7 a3 70 3d 0a d7 12 c0 c3 f5 28 5c 8f 42 2c 40
       -4.71 14.13
000580 ae 47 e1 7a 14 6e 40 40 0a d7 a3 70 3d aa 49 40
       32.86 51.33
000590 9a 99 99 99 99 59 51 40 7b 14 ae 47 e1 ba 55 40
       69.4 86.92
0005a0 e1 7a 14 ae 47 f1 59 40 33 33 33 33 33 f3 5d 40
       103.77 119.8
0005b0 cd cc cc cc cc dc 60 40 ae 47 e1 7a 14 9e 62 40
       134.9 148.94
0005c0 52 b8 1e 85 eb 39 64 40 3d 0a d7 a3 70 ad 65 40
       161.81 173.42
0005d0 3d 0a d7 a3 70 f5 66 40 48 e1 7a 14 ae 0f 68 40
       183.67 192.49
0005e0 e1 7a 14 ae 47 f9 68 40 e1 7a 14 ae 47 b1 69 40
       199.79 205.54
0005f0 3d 0a d7 a3 70 35 6a 40 3d 0a d7 a3 70 85 6a 40
       209.67 212.17
000600 00 00 00 00 00 60 65 40 1f 85 eb 51 b8 3e 65 40
       171.0 169.96
000610 ec 51 b8 1e 85 db 64 40 8f c2 f5 28 5c 37 64 40
       166.86 161.73
000620 cd cc cc cc cc 54 63 40 f6 28 5c 8f c2 35 62 40
       154.65 145.68
000630 ae 47 e1 7a 14 de 60 40 14 ae 47 e1 7a a4 5e 40
       134.94 122.57
000640 3d 0a d7 a3 70 2d 5b 40 52 b8 1e 85 eb 61 57 40
       108.71 93.53
000650 3d 0a d7 a3 70 4d 53 40 7b 14 ae 47 e1 fa 4d 40
       77.21 59.96
000660 3d 0a d7 a3 70 fd 44 40 3d 0a d7 a3 70 7d 37 40
       41.98 23.49
000670 d7 a3 70 3d 0a d7 12 40 3d 0a d7 a3 70 3d 2c c0
       4.71 -14.12
000680 a4 70 3d 0a d7 63 40 c0 66 66 66 66 66 86 49 c0
       -32.78 -51.05
000690 5c 8f c2 f5 28 2c 51 c0 00 00 00 00 00 60 55 c0
       -68.69 -85.5
0006a0 e1 7a 14 ae 47 51 59 c0 14 ae 47 e1 7a f4 5c c0
       -101.27 -115.82
0006b0 66 66 66 66 66 1e 60 c0 71 3d 0a d7 a3 90 61 c0
       -128.95 -140.52
0006c0 14 ae 47 e1 7a cc 62 c0 f6 28 5c 8f c2 cd 63 c0
       -150.39 -158.43
0006d0 9a 99 99 99 99 91 64 c0 3d 0a d7 a3 70 15 65 c0
       -164.55 -168.67
0006e0 48 e1 7a 14 ae 57 65 c0 48 e1 7a 14 ae 57 65 c0
       -170.74 -170.74
0006f0 3d 0a d7 a3 70 15 65 c0 9a 99 99 99 99 91 64 c0
       -168.67 -164.55
000700 f6 28 5c 8f c2 cd 63 c0 14 ae 47 e1 7a cc 62 c0
       -158.43 -150.39
000710 71 3d 0a d7 a3 90 61 c0 66 66 66 66 66 1e 60 c0
       -140.52 -128.95
000720 14 ae 47 e1 7a f4 5c c0 e1 7a 14 ae 47 51 59 c0
       -115.82 -101.27
000730 00 00 00 00 00 60 55 c0 5c 8f c2 f5 28 2c 51 c0
       -85.5 -68.69
000740 66 66 66 66 66 86 49 c0 a4 70 3d 0a d7 63 40 c0
       -51.05 -32.78
000750 3d 0a d7 a3 70 3d 2c c0 d7 a3 70 3d 0a d7 12 40
       -14.12 4.71
000760 3d 0a d7 a3 70 7d 37 40 3d 0a d7 a3 70 fd 44 40
       23.49 41.98
000770 7b 14 ae 47 e1 fa 4d 40 3d 0a d7 a3 70 4d 53 40
       59.96 77.21
000780 52 b8 1e 85 eb 61 57 40 3d 0a d7 a3 70 2d 5b 40
       93.53 108.71
000790 14 ae 47 e1 7a a4 5e 40 ae 47 e1 7a 14 de 60 40
       122.57 134.94
0007a0 f6 28 5c 8f c2 35 62 40 cd cc cc cc cc 54 63 40
       145.68 154.65
0007b0 8f c2 f5 28 5c 37 64 40 ec 51 b8 1e 85 db 64 40
       161.73 166.86
0007c0 1f 85 eb 51 b8 3e 65 40 00 00 00 00 00 00 68 40
       169.96 192.0
0007d0 c3 f5 28 5c 8f e2 67 40 52 b8 1e 85 eb 89 67 40
       191.08 188.31
0007e0 8f c2 f5 28 5c f7 66 40 5c 8f c2 f5 28 2c 66 40
       183.73 177.38
0007f0 c3 f5 28 5c 8f 2a 65 40 14 ae 47 e1 7a f4 63 40
       169.33 159.64

array2 f8 [3, 384]
000000 ee 6f d2 a1 94 12 c8 bf 78 7a e4 a7 b3 4b e5 3f
       -0.18806703473535386 0.6654909400129574
000010 7c 7a 99 ca 16 04 ea 3f 41 3c 49 56 84 82 e8 3f
       0.8129991490385033 0.7659322438502231
000020 86 bf 2d eb fb 13 e5 3f f3 4f f4 19 5e 56 e0 3f
       0.6586894601186806 0.5105429179116058
000030 a9 37 d1 03 38 4a d5 3f d9 21 f9 42 cb 64 c1 3f
       0.33265495655802596 0.13588848848509263
000040 09 ea 80 71 61 f2 b1 bf 3f a5 5f cc c3 c7 d1 bf
       -0.07010468503077773 -0.2778176780544363
000050 d5 82 12 56 fb bb de bf 2d d5 a7 04 34 64 e5 bf
       -0.48022349744318876 -0.6684818354539509
000060 9b bf 2d 74 46 88 ea bf 5c 8a fc cc 35 3a ee bf
       -0.8291351575007754 -0.9446057323114689
000070 9d de 24 0e e5 ed ef bf b4 05 d6 77 a9 56 ef bf
       -0.9977898861170221 -0.9793288555667261
000080 c1 09 42 f5 c5 8e ec bf 7e c5 81 14 5b 0a e8 bf
       -0.892428378123718 -0.7512641335035111
000090 39 4f ad a6 97 60 e2 bf e0 c6 3c 52 e5 2b d8 bf
       -0.5742910628709758 -0.3776791861629203
0000a0 28 69 0b b6 f0 1d c6 bf 04 b5 21 d8 fc cb a0 3f
       -0.17278870476622754 0.032806302436123175
0000b0 5d 8d 85 a8 0a b5 cd 3f 4b e9 ff d6 f0 b3 da 3f
       0.2320874522075468 0.41723271366176523
0000c0 3d b7 c8 a5 24 80 e2 3f 8c 07 3c af 51 89 e6 3f
       0.5781424749345444 0.7042625830219875
0000d0 8d c1 03 74 58 09 e9 3f 5d 1a 7e ef 78 77 e8 3f
       0.7823908105765881 0.764584033736195
0000e0 22 4c 4b 14 96 5b c8 bf cb 47 a7 e1 76 d1 ef 3f
       -0.19029499045299852 0.994319382409452
0000f0 f2 87 10 63 bc e8 ec 3f 29 80 10 67 d5 95 ea 3f
       0.9034101424078911 0.8307902348497055
000100 ff f6 f2 0c e0 4b e7 3f b1 fc 30 36 02 ec e2 3f
       0.7280121090804811 0.5913096483635824
000110 f4 e9 34 d7 d9 2d db 3f fb c6 f8 25 7c 3a ce 3f
       0.42467351928976815 0.23615981916514514
000120 b1 b3 84 25 9f b0 a1 3f cf a4 ea 4f 0a 0d c6 bf
       0.0345506413744724 -0.17227295782257676
000130 c5 ee a4 e0 30 31 d8 bf 28 86 63 ef 45 65 e2 bf
       -0.37800237596432523 -0.5748624492227394
000140 21 26 c3 aa 03 10 e8 bf 80 f5 be 93 48 93 ec bf
       -0.7519548735810454 -0.892978943411137
000150 b0 b4 f2 c2 f7 58 ef bf 19 f1 52 3e 39 ed ef bf
       -0.9796103293971523 -0.9977079598679978
000160 aa 4d 9f 67 eb 36 ee bf e5 04 05 ac 46 84 ea bf
       -0.9442040466187127 -0.8286469802625588
000170 2f c2 9a c6 23 63 e5 bf 0b 92 b5 48 03 c6 de bf
       -0.6683520201677932 -0.48083574390901224
000180 62 11 3c 65 7b e0 d1 bf 5c 5b ab 05 b3 86 b2 bf
       -0.2793262947673353 -0.07236784828579118
000190 53 07 d1 ae ca 20 c1 3f 4b be 37 39 d3 44 d5 3f
       0.13381322418177408 0.33232575023337024
0001a0 fa 59 20 c1 83 77 e0 3f b4 10 a7 64 da 80 e5 3f
       0.5145891925811263 0.6719791379805629
0001b0 14 7a a2 0e 6c 8e e9 3f 3f 5a e2 02 31 9e ec 3f
       0.7986355100472928 0.8943104797679736
0001c0 d8 6a d9 ea 77 4e ef 3f d3 84 46 68 b6 ff ef 3f
       0.9783286654377106 0.9999649082784806
0001d0 20 38 5a fe 03 86 ef 3f ad f9 ef da 32 32 ee 3f
       0.9851093261547739 0.9436277652856028
0001e0 f0 bd 08 2f ce 03 ec 3f c0 96 4e 68 9a f6 e8 3f
       0.8754645270000179 0.7801029240842681
0001f0 a3 33 f8 15 10 07 e5 3f a7 ee aa 55 ae 42 e0 3f
       0.6571121625034845 0.5081397698590607
000200 82 cf 70 c5 46 90 d5 3f 05 eb d7 60 f9 23 c3 3f
       0.3369309356814868 0.14953534344370936
000210 bb 04 75 32 56 1e a8 bf 37 ba 66 d2 c6 6b cf bf
       -0.047106450709642776 -0.24547658227443644
000220 b2 36 9a de b3 0b dc bf 2e 06 06 05 c2 be e3 bf
       -0.43821427095904675 -0.6170358751407485
000230 b2 a9 b8 68 53 b9 e8 bf 61 8c 9f 2c 63 a1 ec bf
       -0.7726227803553256 -0.8947006103084157
000240 db f4 3a 21 4b 23 ef bf 0c 21 93 33 ff ff ef bf
       -0.9730582856206199 -0.9999996192282494
000250 a7 ff d5 1f fc 1f ef bf 94 45 91 54 59 9a ec bf
       -0.9726544019504119 -0.893841424151264
000260 dd 1d 69 4d 54 af e8 bf ae 5b ca c1 3e b1 e3 bf
       -0.7714025031972899 -0.6153863701791715
000270 04 69 ba f1 fc f1 db bf 42 a4 59 40 f6 44 cf bf
       -0.4366447792650805 -0.24429205076310906
000280 7e 39 b3 65 a2 f0 a7 bf 7a ce 06 91 5a 0d c3 3f
       -0.046757769503176214 0.14884502488495227
000290 80 95 34 36 58 75 d5 3f f4 40 fd 41 f6 2e e0 3f
       0.3352871445989294 0.505732659230516
0002a0 85 b7 c8 01 a3 f3 e4 3f 6c b3 1a 61 92 e5 e8 3f
       0.6547408137173397 0.7780239006584515
0002b0 75 43 c0 83 6a f9 eb 3f 16 22 a6 01 ee 2d ee 3f
       0.8741962979566852 0.9431066543775752
0002c0 21 ba 41 08 c5 85 ef 3f 64 8d 80 4e ca ff ef 3f
       0.9850793038620546 0.9999743970151198
0002d0 d7 e0 4f ef 70 98 ef 3f 7e 3a e3 09 b6 4d ee 3f
       0.9873585390151004 0.9469862168424041
0002e0 d8 ef e2 a6 e7 1d ec 3f 8d c1 03 74 58 09 e9 3f
       0.8786504992963229 0.7823908105765881
0002f0 ce 60 99 08 d5 11 e5 3f 04 45 02 28 d6 48 e0 3f
       0.6584267776443313 0.5088911801741749
000300 dc e1 10 64 0b 9b d5 3f 88 36 6f 08 3f 40 c3 3f
       0.3375881650167949 0.1503981391128273
000310 95 05 7f 10 60 7e a7 bf 44 72 33 ab de 39 cf bf
       -0.0458860416542947 -0.24395354613706577
000320 04 69 ba f1 fc f1 db bf 39 c9 bd b1 7f b3 e3 bf
       -0.4366447792650805 -0.6156614753256583
000330 4e 07 13 d5 0e b2 e8 bf f1 c1 99 58 e9 9c ec bf
       -0.7717355882270824 -0.8941542368393681
000340 75 cb 1c ac 4f 21 ef bf 5f af d2 f7 ff ff ef bf
       -0.9728163110324731 -0.9999999847691291
000350 64 f0 cb 12 f9 21 ef bf 07 5c aa 72 78 9f ec bf
       -0.972897087776357 -0.8944666137275598
000360 0c 16 96 8f 82 b7 e8 bf 2e 06 06 05 c2 be e3 bf
       -0.772401123468343 -0.6170358751407485
000370 67 3c 8b c8 d7 10 dc bf 8d 5d ae 7b f3 81 cf bf
       -0.4385280092655592 -0.24615329302899305
000380 a1 76 b1 37 bd 79 a8 bf 7a ce 06 91 5a 0d c3 3f
       -0.04780379586075623 0.14884502488495227
000390 82 cf 70 c5 46 90 d5 3f e5 a2 1e 39 11 4a e0 3f
       0.3369309356814868 0.5090414157503714
0003a0 a9 bb 50 90 6f 1a e5 3f e9 16 ac e8 ca 15 e9 3f
       0.6594770258578723 0.7839102310542475
0003b0 0f ce 33 49 28 2a ec 3f 0a 49 ef 61 7c 55 ee 3f
       0.8801461629613544 0.9479352867877264
0003c0 ab 3c 47 ce 5d 9b ef 3f ce dc 32 39 f3 ff ef 3f
       0.9877156285164309 0.9999939076577904
0003d0 e0 f6 c2 30 93 a9 ef 3f 4b 9c f4 bc 3e ae ee 3f
       0.9894500687002754 0.9587701502358724
0003e0 70 df 65 2e 50 0b ed 3f 07 74 54 10 5d bd ea 3f
       0.9076310068330553 0.8356156653350134
0003f0 21 32 6d 1e 44 be e7 3f c5 6f ae 22 98 11 e4 3f
       0.7419758409756164 0.6271477391596753
000400 8c 47 ba a0 6b 77 df 3f 6b 8a 05 52 cf a5 d5 3f
       0.4916638440710066 0.3382452298157321
000410 16 b7 3d 05 ca c3 c5 3f 19 3c f4 a7 36 28 81 bf
       0.17003751045142995 -0.008377482414770697
000420 e6 fd 4a 36 45 7d c8 bf be 06 51 e8 60 dc d7 bf
       -0.1913229479887228 -0.37282583892020316
000430 bb 1d ed 0b e0 74 e1 bf b2 e2 04 da f6 73 e6 bf
       -0.5455169899877811 -0.7016557939706074
000440 1e a4 ba 8b ea a4 ea bf bf 57 77 ff e1 c3 ed bf
       -0.8326313714106879 -0.9301614751409416
000450 6c b4 74 67 79 95 ef bf 58 d2 20 7d b3 f3 ef bf
       -0.9869963665602319 -0.998498672858271
000460 5b d5 0a 51 71 d6 ee bf 9d 8e 90 20 cf 55 ec bf
       -0.9636770804269575 -0.885474742510684
000470 21 7d 7b 37 7c a3 e8 bf 3d 08 66 36 df 00 e4 bf
       -0.7699566920890996 -0.6251064360114992
000480 f4 3f d1 a5 c1 69 dd bf f6 e3 82 f5 a6 09 d2 bf
       -0.4595798606214878 -0.2818391225405884
000490 fb ed b4 2b a3 61 b9 bf 9a 38 f2 b4 85 ee b4 3f
       -0.09914607827243309 0.08176456134444479
0004a0 58 c9 fc 63 75 56 d0 3f 76 87 2d 31 58 a4 da 3f
       0.2552770115318217 0.41628079226040116
0004b0 03 c1 36 4b 1f f3 e1 3f 54 5f e3 80 62 f6 e5 3f
       0.5609280079861779 0.6863262669894348
0004c0 5b 93 90 38 54 4d e9 3f b6 e5 42 2a f1 f5 eb 3f
       0.7906895737438434 0.8737722230354652
0004d0 4a 1e b6 f5 2a f0 ed 3f 2e ac bd e6 48 40 ef 3f
       0.9355673598337912 0.9765972620638246
0004e0 e4 d4 5d 38 79 e9 ef 3f 8b 47 a7 71 20 ed ef 3f
       0.9972501850994857 0.9976961345475827
0004f0 04 14 49 65 99 4a ef 3f 9b e7 64 d9 35 ff ed 3f
       0.9778563478690789 0.9374036069850605
000500 51 df d2 f1 41 07 ec 3f 61 75 c2 db aa 5f e9 3f
       0.8758859370345623 0.7929281513385541
000510 1d 03 d5 2c 00 07 e6 3f 7c 4b cf 7a 7f 02 e2 3f
       0.688354575693754 0.5628049276950686
000520 05 41 03 8a 55 be da 3f e0 70 d6 1e cf 69 d0 3f
       0.41786707380107685 0.2564580727719328
000530 3a ee 07 0b 85 27 b5 3f f6 f6 19 b2 7d 3f b9 bf
       0.08263427275954252 -0.09862504575900374
000540 db 97 82 26 2a 04 d2 bf f4 3f d1 a5 c1 69 dd bf
       -0.28150419007067534 -0.4595798606214878
000550 3d 08 66 36 df 00 e4 bf f8 2f d9 bf 65 a4 e8 bf
       -0.6251064360114992 -0.7700680491484482
000560 f8 ee 92 2f 23 57 ec bf 92 24 5b b3 34 d7 ee bf
       -0.8856368951014408 -0.9637702467963598
000570 2a a6 6c 59 ef f3 ef bf cf 64 4a 9d c8 94 ef bf
       -0.9985272165842549 -0.9869120666582151
000580 b3 c8 ca 1b d5 c2 ed bf e9 ee 60 03 55 a3 ea bf
       -0.930033258706564 -0.8324379983891649
000590 1a 65 35 2b ed 71 e6 bf 61 76 22 44 ad 73 e1 bf
       -0.7014070362012348 -0.5453707056764864
0005a0 be 06 51 e8 60 dc d7 bf 04 36 f4 32 7f 88 c8 bf
       -0.37282583892020316 -0.19166555393205453
0005b0 d9 7e be 3a b7 83 81 bf 17 67 2a 3b 27 be c5 3f
       -0.008552009086826672 0.16986551655718848
0005c0 13 9b dd 31 80 a8 d5 3f 6e 27 9b 1b de 83 df 3f
       0.3384094702691282 0.4924235601034671
0005d0 5d 66 41 9c 7f 1a e4 3f f2 e2 74 a5 9f cc e7 3f
       0.6282346774925817 0.7437284690450652
0005e0 78 f1 e2 91 cf cd ea 3f a1 2f 18 7a 9f 1c ed 3f
       0.8376233910890241 0.9097440132768392
0005f0 9e 4e e1 cc 51 bc ee 3f 1e 50 a3 b1 a9 b1 ef 3f
       0.9604882241787498 0.9904373616686859
000600 ee 6f d2 a1 94 12 c8 bf 78 7a e4 a7 b3 4b e5 3f
       -0.18806703473535386 0.6654909400129574
000610 7c 7a 99 ca 16 04 ea 3f 41 3c 49 56 84 82 e8 3f
       0.8129991490385033 0.7659322438502231
000620 86 bf 2d eb fb 13 e5 3f f3 4f f4 19 5e 56 e0 3f
       0.6586894601186806 0.5105429179116058
000630 a9 37 d1 03 38 4a d5 3f d9 21 f9 42 cb 64 c1 3f
       0.33265495655802596 0.13588848848509263
000640 09 ea 80 71 61 f2 b1 bf 3f a5 5f cc c3 c7 d1 bf
       -0.07010468503077773 -0.2778176780544363
000650 d5 82 12 56 fb bb de bf 2d d5 a7 04 34 64 e5 bf
       -0.48022349744318876 -0.6684818354539509
000660 9b bf 2d 74 46 88 ea bf 5c 8a fc cc 35 3a ee bf
       -0.8291351575007754 -0.9446057323114689
000670 9d de 24 0e e5 ed ef bf b4 05 d6 77 a9 56 ef bf
       -0.9977898861170221 -0.9793288555667261
000680 c1 09 42 f5 c5 8e ec bf 7e c5 81 14 5b 0a e8 bf
       -0.892428378123718 -0.7512641335035111
000690 39 4f ad a6 97 60 e2 bf e0 c6 3c 52 e5 2b d8 bf
       -0.5742910628709758 -0.3776791861629203
0006a0 28 69 0b b6 f0 1d c6 bf 04 b5 21 d8 fc cb a0 3f
       -0.17278870476622754 0.032806302436123175
0006b0 5d 8d 85 a8 0a b5 cd 3f 4b e9 ff d6 f0 b3 da 3f
       0.2320874522075468 0.41723271366176523
0006c0 3d b7 c8 a5 24 80 e2 3f 8c 07 3c af 51 89 e6 3f
       0.5781424749345444 0.7042625830219875
0006d0 8d c1 03 74 58 09 e9 3f 5d 1a 7e ef 78 77 e8 3f
       0.7823908105765881 0.764584033736195
0006e0 22 4c 4b 14 96 5b c8 bf cb 47 a7 e1 76 d1 ef 3f
       -0.19029499045299852 0.994319382409452
0006f0 f2 87 10 63 bc e8 ec 3f 29 80 10 67 d5 95 ea 3f
       0.9034101424078911 0.8307902348497055
000700 ff f6 f2 0c e0 4b e7 3f b1 fc 30 36 02 ec e2 3f
       0.7280121090804811 0.5913096483635824
000710 f4 e9 34 d7 d9 2d db 3f fb c6 f8 25 7c 3a ce 3f
       0.42467351928976815 0.23615981916514514
000720 b1 b3 84 25 9f b0 a1 3f cf a4 ea 4f 0a 0d c6 bf
       0.0345506413744724 -0.17227295782257676
000730 c5 ee a4 e0 30 31 d8 bf 28 86 63 ef 45 65 e2 bf
       -0.37800237596432523 -0.5748624492227394
000740 21 26 c3 aa 03 10 e8 bf 80 f5 be 93 48 93 ec bf
       -0.7519548735810454 -0.892978943411137
000750 b0 b4 f2 c2 f7 58 ef bf 19 f1 52 3e 39 ed ef bf
       -0.9796103293971523 -0.9977079598679978
000760 aa 4d 9f 67 eb 36 ee bf e5 04 05 ac 46 84 ea bf
       -0.9442040466187127 -0.8286469802625588
000770 2f c2 9a c6 23 63 e5 bf 0b 92 b5 48 03 c6 de bf
       -0.6683520201677932 -0.48083574390901224
000780 62 11 3c 65 7b e0 d1 bf 5c 5b ab 05 b3 86 b2 bf
       -0.2793262947673353 -0.07236784828579118
000790 53 07 d1 ae ca 20 c1 3f 4b be 37 39 d3 44 d5 3f
       0.13381322418177408 0.33232575023337024
0007a0 fa 59 20 c1 83 77 e0 3f b4 10 a7 64 da 80 e5 3f
       0.5145891925811263 0.6719791379805629
0007b0 14 7a a2 0e 6c 8e e9 3f 3f 5a e2 02 31 9e ec 3f
       0.7986355100472928 0.8943104797679736
0007c0 d8 6a d9 ea 77 4e ef 3f d3 84 46 68 b6 ff ef 3f
       0.9783286654377106 0.9999649082784806
0007d0 20 38 5a fe 03 86 ef 3f ad f9 ef da 32 32 ee 3f
       0.9851093261547739 0.9436277652856028
0007e0 f0 bd 08 2f ce 03 ec 3f c0 96 4e 68 9a f6 e8 3f
       0.8754645270000179 0.7801029240842681
0007f0 a3 33 f8 15 10 07 e5 3f a7 ee aa 55 ae 42 e0 3f
       0.6571121625034845 0.5081397698590607
